RingBall/RingPong_100K.onnx (onnx, 19914 bytes, 5 tensors)

mlp_extractor.policy_net.0.weight f4 [64, 4]
00000000: 1288 693e 045a c5bd 65cb 8abd 1055 293d
00000010: 3010 dbbe e0d0 9cbe 523e adbd e78c 713e
00000020: 7144 2ebe e698 2abe 4a90 70bd 3119 44be
00000030: 54ef f23d cad3 72bc a8a8 b0bd ba20 32be
00000040: 2ab2 f93e 58b2 9abd e934 d43d 38cf b0bc
00000050: af19 2fbe 4062 a53d 4c11 c7be c1f8 b33d
00000060: 2ff8 043f f4a5 033f e15f a43d 3a04 473c
00000070: 5ff9 d9be 4757 473d 81d1 8abe fde0 14be
00000080: 4049 1d3f 11d0 463e 20f2 e5bc f24f 483e
00000090: 5133 84bc 41b5 64bd b2a2 90be 6591 02be
000000a0: c243 08bf a757 c53d 5978 d9bb 1d66 92bd
000000b0: a59b d0be f621 233c 46d9 d0bd 5318 fb3d
000000c0: 9d9e 2f3f 5cee d3bd 04bf 183e cbfc d83d
000000d0: 5742 8f3d e576 8a3d 8222 6c3d 8d1c cf3d
000000e0: 28b0 003f fc56 1a3d 4ab4 2c3e 896a b93e
000000f0: 9e93 063e 1e37 eabe d209 93bc a6de 923d
00000100: c64c aebe 17fb 79bd ce8d 883c 1d1f dabe
00000110: 0b4e bfbe f7ea f0b9 81ae 29be 2461 b7bd
00000120: 7860 4abf ba03 883d 2a85 a9bc 5dc1 19be
00000130: 41c1 1e3e a7d3 d73d f5c5 243c e10f d53c
00000140: ab8c 063f ff2d f43d 27bf 89bd 0e9f a03d
00000150: 123a 4abe 59b0 9e3e fafd afbe 9543 08bc
00000160: eeff cb3d 5c45 e1bd e8fa 013e 7dc7 853d
00000170: cde2 a9be 7202 fdbe f52a 2e3d 1a2f 233e
00000180: dea7 c9be fe98 563e dd64 a1bc 8001 f43d
00000190: 2239 b83e a881 343e 2532 583e 12ca 17be
000001a0: 0fd2 123f 510b f73c 8d3e b33d 30eb 3cbd
000001b0: 55d7 e6bd 3051 30bd 4422 b9be 2f20 8cbe
000001c0: 5938 b9bd 5f21 1b3c 7e51 fabd b01f f2bd
000001d0: 006e a5bc 41d2 69be b75d 643d 5e77 82bd
000001e0: e965 68bd 1868 ed3d 17bc 2e3d e05e 19bc
000001f0: ba6a 9a3e 3c5d 933e 1c88 5d3d b4e5 a2bd
00000200: 4d2c ec3e 0c50 aabd d604 9ebc cdeb 82bd
00000210: db20 bf3e 6352 93be 80f0 04bf c7f6 f4bd
00000220: 6aee b7bc 7f39 0fbe d4f5 853c d9c9 5cbe
00000230: 3c7a 17bf a0ec ab3d 0dbc 503d 0a66 e43d
00000240: 28b9 ccbe e054 b1bd a80d a03e 83d9 5f3e
00000250: 9882 c6be 2980 ce3d a9f3 913d 8a54 433e
00000260: e0d5 e93e 6c88 b43d 9417 1bbe a554 693d
00000270: b544 61be 835f 97bc d808 0ebc 6dc0 443e
00000280: 96d4 98be dc1f d43d 45fe 0fbe 6074 983d
00000290: 1615 e73e 1ccc 38be 9938 92bd c240 063e
000002a0: 65e6 3cbd f94f d1bd b111 9f3d d901 17be
000002b0: 1a9f 13bf 1613 dabd 609e 06bd 10ab 4c3d
000002c0: f8b9 ebbe 3532 a1bd 461a c23d e0d7 85bd
000002d0: f2a8 95be a8cd 12be eee8 d13b 4fa7 1f3e
000002e0: 398a fd3e 3b01 c33b 0074 50be 17b4 13bc
000002f0: cd25 25bf ba26 b63e fca3 99be c41e 5e3e
00000300: b183 6a3e 0b6e 873e 0207 983c 5489 96be
00000310: 699e 28bf 0338 1e3e acb2 c03d dfcc e7bd
00000320: 55eb 7d3e e216 05bd f3e2 f23c c212 03be
00000330: b499 86be 7c06 34be 6b97 b9bc ded8 22bd
00000340: 39a2 a2be f898 c43d 8016 8fbe 0ec3 853d
00000350: 6287 e53e d237 1a3e fc77 10bd ae5f 1ebe
00000360: 4830 d3be 2349 b33d c809 86bd e5e7 6d3e
00000370: 9ac4 713e 6db8 2b3e 3948 2fbd d649 ddbd
00000380: 73fd 27be b47b 56bd f042 233d 28c8 bc3d
00000390: 1586 e73e dadd 65be 7dc5 4b3e 6284 5dbd
000003a0: 345f 39be dd3d 63bd 0307 84be 2587 be3e
000003b0: 085b d0be 74b4 623d 7e90 8abd e60c a9bd
000003c0: 81c7 e53e 0ec1 e2bd c3f6 4abd fd46 9d3c
000003d0: d94f a9bd 494c 3d3e 45b8 dbbe dbad ce3e
000003e0: 9ce5 7e3e b967 e93d 2eba b4bc 58e3 64be
000003f0: e278 853e b166 0dbe fee8 15be cd82 a7bd
0.22805813 -0.0963631 -0.06777076 0.041340888 -0.42785788 -0.3062811 -0.08459152 0.23588906
-0.17018296 -0.16659889 -0.058731355 -0.19150235 0.118620545 -0.014821002 -0.086259186 -0.17395297
0.4876874 -0.075535476 0.10361654 -0.021583185 -0.17099641 0.0807538 -0.38880384 0.087876804
0.519412 0.514251 0.080261 0.012147004 -0.42573068 0.04866722 -0.27112964 -0.14538951
0.61439896 0.19415309 -0.028069556 0.19561747 -0.01613775 -0.05583692 -0.28249127 -0.12750776
-0.5322839 0.09635859 -0.006636661 -0.07148383 -0.40743747 0.009956827 -0.101976916 0.12260499
0.686014 -0.10348198 0.14916617 0.105950914 0.06995075 0.067609586 0.057650097 0.101128675
0.50268793 0.03768061 0.1686565 0.36214092 0.13142249 -0.45745176 -0.017949019 0.07171373
-0.34042948 -0.061030474 0.01666918 -0.42601863 -0.3736423 -0.0004595143 -0.16570474 -0.08954075
-0.7905345 0.06641336 -0.02069338 -0.15015168 0.15503408 0.10538416 0.010056962 0.026008548
0.5255839 0.119228356 -0.067259125 0.07842837 -0.19748715 0.30993918 -0.34373456 -0.008316894
0.09960924 -0.109995574 0.1269337 0.0653219 -0.33180848 -0.49415928 0.042521436 0.15935937
-0.39385885 0.209568 -0.019701416 0.119143486 0.3598109 0.17627585 0.21112879 -0.14823177
0.57351774 0.030156763 0.08752165 -0.04612273 -0.1127154 -0.043046176 -0.36158955 -0.27368304
-0.090439506 0.0094684055 -0.12222575 -0.1182245 -0.020194054 -0.22834112 0.055753436 -0.06370424
-0.056737814 0.1159212 0.042659845 -0.009360999 0.3015955 0.2878207 0.054084882 -0.07953969
0.4612755 -0.08316049 -0.019289415 -0.06392632 0.37329754 -0.28773794 -0.51929474 -0.119611315
-0.022452552 -0.13986777 0.016352572 -0.21561374 -0.5917089 0.08394742 0.05096059 0.11152275
-0.39985013 -0.08658767 0.3126042 0.21860318 -0.3877151 0.10083038 0.071265526 0.19075218
0.45670986 0.08815083 -0.15145713 0.05696549 -0.21998866 -0.01847816 -0.008669101 0.1921403
-0.2984969 0.10357639 -0.1406184 0.07444072 0.45133275 -0.18046612 -0.071397014 0.1311064
-0.04611816 -0.10220332 0.07767046 -0.14746799 -0.57664645 -0.106481716 -0.032865882 0.049967825
-0.4604032 -0.07870904 0.094776675 -0.065353155 -0.29230458 -0.14336264 0.006405941 0.15591167
0.49519518 0.0059510744 -0.2035675 -0.009015105 -0.64510804 0.3557642 -0.30007923 0.21691424
0.22901799 0.26451144 0.01855803 -0.29401648 -0.65866715 0.15451054 0.09409079 -0.11318373
0.24796803 -0.032492526 0.029649233 -0.12800124 -0.2628914 -0.17580599 -0.02265521 -0.039757602
-0.3176439 0.09599489 -0.27946854 0.06531344 0.4482985 0.15060356 -0.035270676 -0.15466186
-0.41247773 0.08754184 -0.065448344 0.23232992 0.23610154 0.16769572 -0.042793486 -0.10805099
-0.16405277 -0.052364066 0.03985876 0.09217864 0.45219484 -0.22447911 0.19899555 -0.05408133
-0.18102723 -0.05547892 -0.257866 0.37212482 -0.4069445 0.055347875 -0.06765841 -0.08254413
0.44878772 -0.110719785 -0.049551737 0.019198889 -0.08267183 0.18486132 -0.42914024 0.40367016
0.24892277 0.11396737 -0.022061434 -0.2235235 0.2606879 -0.13808705 -0.1463966 -0.08179245

mlp_extractor.policy_net.0.bias f4 [64]
00000000: 80fe 963d c816 16bc e41f 95ba 889a 8d3a
00000010: a9c6 07bb 4103 be3c 9fa7 0b3e 245a 70bc
00000020: 5e5b 46bd 4056 babc 70b8 433c 3c13 8f3b
00000030: d823 45bb 1475 7d3d df2e be3c 8695 febc
00000040: 3669 123d 9599 873c fd85 2b39 0a89 d6bd
00000050: 364d 79bc dd31 b3bc a352 1c3c 78f9 ffbc
00000060: 07d3 3b3b 7d70 8f3c 3695 c2ba d4c6 59bc
00000070: 8ff1 22bd 5dcc 663b 718c 8bbd c0d1 783d
00000080: a215 6abc ce35 833c 80ca 87bc 6870 f9bc
00000090: 3bea 23bd 65b5 e9bc 5086 41bc 9d3b c1bb
000000a0: c737 28bd 339a f13c 5f30 49bd 9798 513a
000000b0: b407 1a3d 0bb5 013c 5ccf 8b3a b89d 483d
000000c0: 1391 0d3d ca4b 91bc e184 03bc ad3c 1abd
000000d0: 6c18 103d c6fa 583b 3a5b 89ba 1546 733c
000000e0: 9219 c9bb 2583 a13c 16f2 e33c c238 1bbd
000000f0: 7e80 113d b610 af3d fa4f c33b 98f1 593d
0.07372761 -0.009160705 -0.0011377302 0.00108035 -0.0020717776 0.023194911 0.13638161 -0.014669929
-0.04842698 -0.022746205 0.011945829 0.0043663066 -0.003008118 0.061879233 0.02321571 -0.031077158
0.03574487 0.016552726 0.00016357745 -0.10475357 -0.015216162 -0.021874363 0.0095411865 -0.031246886
0.0028659718 0.017509693 -0.0014845494 -0.013292033 -0.03978115 0.0035217025 -0.068138964 0.06074691
-0.014287384 0.016016867 -0.016576052 -0.030449107 -0.0400183 -0.028528878 -0.011811808 -0.005896999
-0.04106882 0.029492473 -0.049118396 0.0007995455 0.037605003 0.007916699 0.0010666656 0.048978537
0.03456218 -0.017736334 -0.008027286 -0.03765552 0.03517954 0.0033108457 -0.0010479458 0.014848252
-0.0061370814 0.019715855 0.027825397 -0.037895925 0.03552293 0.08548109 0.0059604617 0.053208917

mlp_extractor.policy_net.2.weight f4 [64, 64]
00000000: 977a 0c3e f6fd c3be 3793 70be 74e1 773e
00000010: 6434 853d 5b19 cdbd 46c4 a3bc 4780 c2bd
00000020: e417 f13d 213c 913e 3ce9 713e 639a b4bd
00000030: 18f2 0bbe ee46 603e 65d4 66bd c0cd 783d
00000040: 11e5 0d3e 5ab6 98be 6d09 5e3d d910 ae3e
00000050: 4afb 2ebc bace 85bd ecba 40be fd3e a93d
00000060: a3d0 ffbd 3405 a4be 1c28 5e3e e316 f93d
00000070: 2679 7f3c 9ec0 d53c 5413 70bd 4ff5 013e
00000080: 2ff0 5ebe 4220 583d 42bf 933c bd16 7dbc
00000090: 7f02 343e 8cf9 95bd ef5a e6bd 2702 28bd
000000a0: b747 0dbe 2c50 d9be 033e cdbe d2da c13d
000000b0: ee5b e9bd 1563 2dbd 26dd 013e 40d1 32bc
000000c0: 75e4 28bd 7189 edbd b023 0fbe 11c5 4e3e
000000d0: daaf ca3a b421 d5be 25dd 50bd a72b fbbd
000000e0: cba0 5bbc 6858 21be 4c0d 463d 6196 49be
000000f0: 1975 9c3e ea6e eabc 006e cabd 2d1c 06be
00000100: 665a 003e 20df 5d3d 760f c8bd c357 aabd
00000110: aa81 0e3e 00da 273d 8066 ae3e 8ffc 473d
00000120: a7e6 99bd d315 073e 20cf bcbd e55d 783e
00000130: f7be 2f3e d872 83bd a584 de3c dce4 983c
00000140: 2f15 81be c445 9bbc bdeb 9c3e a286 903c
00000150: 85b5 2cbe aac4 74be c268 e73d 6e83 6a3d
00000160: ac09 a2bc 7732 e7ba c70a efbd 7d7e 013e
00000170: 2a59 5cbe 7a10 11bc b40b 97bd 98ca 7e3d
00000180: 6aa7 1abe e93a fb3d 1b7b 99bd 30b2 a5bc
00000190: 1a94 cabe 59b4 ef3d 2896 69be 3992 ccbe
000001a0: 4201 ee3d 528c 79be 23f0 ad3d 34b9 e93d
000001b0: 2a8d 73be 9692 8bbe 2657 01be dcc5 89be
000001c0: 9e16 35be caf5 ae3e 8c4a d2bc e783 cc3d
000001d0: 498b e93d b0cc 843d a3c7 3ebe 0c26 f3bd
000001e0: b0bb d93e 8174 09be 32e2 98be d5ed 9b3e
000001f0: 444e 703d 9dfd f4bd 003c 77be 55d4 05be
00000200: 27b7 c3be bffa 233e 5c9c 30bd 924e 64be
00000210: 43a4 29be f8f7 d53b 2188 46bd 7426 8e3e
00000220: 1915 b4bd 1dfd dbbc 4df2 9d3c 4ca7 abbe
00000230: bc82 083e 9525 853d 9ccb 72bd 39c4 883e
00000240: bb74 d03d 1ffe 653e 65ac 29be f0a9 4b3e
00000250: a745 d8bd 6bc4 71be 826b 1e3d a9b5 ed3d
00000260: 7521 69bd c47c 49bb 722f 523e 122c e73d
00000270: 86f7 f6bd 4961 873e 5be7 c63e a1e0 3e3d
00000280: beb7 97bd 1fb5 1bbe 9754 b63d 74f2 193e
00000290: d94c 943e 7fb3 61be a818 ee3c 18f1 b8bc
000002a0: 0db9 613e 7873 e2bd f9fc 5bbe 9e5c 473e
000002b0: 91bd f8bd 6b56 893d c30d 89bd 428c 8bbb
000002c0: 1e13 d83d 941b 133e 91d8 81bd b810 b53e
000002d0: f4da 643c 24dc ce3d bdb4 d43e b401 f6bd
000002e0: 7ca7 fa3d 0d1e c0be 97df 6dbe f6f0 4e3e
000002f0: de33 65be 546a bfbd f6ae cf3d 03eb e73c
00000300: fd17 203c 5785 63bd 034a b7bc 68c9 8d3d
00000310: b9ab 183d ed2d 20be d20c bbbd 20aa 853e
00000320: 4909 b33d e984 d63d ee9d b4be 4df5 d6bd
00000330: 18c6 903d 6627 7bbe 64b2 0dbe 4582 84bd
00000340: 0c50 d73e 07c9 fcbd b6a7 dcbd 5991 433e
00000350: 02e8 d73e 2cea 923d 107d a43d 2215 b73d
00000360: d81d a33e 346f 40bd 3945 bc3d ccef d53d
00000370: c388 6c3d 5529 b63e f4f7 a4bd 801a 21be
00000380: c375 1d3d 0ad4 cdbd 7d7a b4bd f0f3 54bb
00000390: 5ef8 7bbe 1a0d aabd 2273 843e ce69 4bbe
000003a0: db76 bb3e 497a edbd 674e d9bd 0e42 26bd
000003b0: 6186 2b3e 707a a4bd 20aa f3bd a5ad 2c3e
000003c0: f94c 71be aaee 90bc 9b1e 7fbe a3ce 50be
000003d0: cf1a 09be 178d 8d3e 5a51 64bd acfd 363e
000003e0: cb16 303e 1b27 8ebb e195 763e 47b7 5ebe
000003f0: 1729 cd3c 3ec4 f93c 810e a7be 28ee ed3c
0.1371864 -0.38279694 -0.23493658 0.24207097 0.06504133 -0.10014602 -0.019991051 -0.09497123
0.11772135 0.28366187 0.23624128 -0.088185094 -0.1366657 0.21902058 -0.0563549 0.060743093
0.13856913 -0.29826623 0.054208208 0.3399723 -0.010680029 -0.065335706 -0.18821305 0.08263967
-0.12490966 -0.3203522 0.21694988 0.121625684 0.015592849 0.026092824 -0.058612183 0.12691234
-0.2177131 0.05276514 0.018035535 -0.015447316 0.17579077 -0.07322988 -0.11247813 -0.041017678
-0.13796888 -0.4244398 -0.40086374 0.09465565 -0.11394487 -0.04233082 0.12682018 -0.010914147
-0.0412335 -0.115984805 -0.13978457 0.20192362 0.0015463785 -0.41627276 -0.05099215 -0.122641854
-0.013405035 -0.1575638 0.048352525 -0.19686271 0.30558088 -0.028617341 -0.09884262 -0.13096686
0.12534484 0.054167867 -0.09768574 -0.083175205 0.1391665 0.040979385 0.34062576 0.048824843
-0.075146966 0.13191919 -0.092191935 0.24254568 0.17162691 -0.06418389 0.02716286 0.018663816
-0.25211474 -0.018954165 0.30648604 0.017642323 -0.16866119 -0.23903146 0.11299278 0.057254247
-0.019780003 -0.0017638941 -0.116719775 0.12645908 -0.21518388 -0.008854026 -0.07375279 0.062204927
-0.15102926 0.122670956 -0.07494184 -0.020226568 -0.39566118 0.117043205 -0.22811186 -0.3995531
0.11621334 -0.24369934 0.08493068 0.11412278 -0.23784319 -0.27260274 -0.126309 -0.26908767
-0.17684409 0.34171897 -0.025670312 0.09986096 0.1140352 0.064843535 -0.18630843 -0.11872491
0.42526007 -0.13423349 -0.29860073 0.3045489 0.05866839 -0.119624354 -0.24143982 -0.1306928
-0.38225672 0.16013621 -0.043117866 -0.22295597 -0.16566567 0.0065298043 -0.048469666 0.27763712
-0.087930866 -0.026854092 0.019280577 -0.33526075 0.13331121 0.06501309 -0.05927621 0.26712206
0.101785146 0.22460221 -0.1656967 0.19889045 -0.1056016 -0.23610084 0.038676746 0.116069146
-0.056916673 -0.0030744532 0.20525911 0.112877026 -0.1205893 0.2644141 0.38848385 0.04660094
-0.07408093 -0.15205811 0.08902853 0.15033895 0.2896488 -0.22041129 0.029064491 -0.0225759
0.22043248 -0.1105718 -0.2148322 0.19468924 -0.12145532 0.06705936 -0.06692078 -0.0042586634
0.10550521 0.14365989 -0.06340135 0.35364318 0.013968218 0.10100582 0.41544142 -0.120120436
0.12238976 -0.37522927 -0.23229824 0.20209107 -0.22383067 -0.09346452 0.10140793 0.028310305
0.009771344 -0.055547085 -0.022374159 0.06923181 0.037273142 -0.1564252 -0.09133305 0.26106358
0.087420054 0.10474569 -0.3527674 -0.10496006 0.070690334 -0.24526748 -0.13837582 -0.064701594
0.42053258 -0.123430304 -0.10774176 0.19098414 0.42169195 0.07173571 0.08031666 0.08939578
0.31858706 -0.04698105 0.09192891 0.10446128 0.057747614 0.3557841 -0.08055106 -0.15732765
0.038442384 -0.10050209 -0.08812425 -0.003249403 -0.24606463 -0.0830328 0.2586909 -0.1986458
0.36614117 -0.1159559 -0.10610657 -0.04059034 0.1675048 -0.080311656 -0.11897683 0.16863115
-0.23564519 -0.017691929 -0.24914019 -0.20391326 -0.13389133 0.27646706 -0.055741645 0.17870206
0.17196195 -0.004338158 0.24080612 -0.21749602 0.025044007 0.030489083 -0.32628253 0.029044226

mlp_extractor.policy_net.2.bias f4 [64]
00000000: 8e0d 3aba 978f 96bc 69c9 cbbc 6641 0ebc
00000010: 8f07 32bd e435 e6bc b28b df3a d202 57bc
00000020: 6dbd 393c f018 6fbc d1f0 6dbc dfca 2dbc
00000030: af81 98ba 0bb9 9abc 2fdb c73c 8911 4dbc
00000040: e6f5 e0bb 4a21 b5bc cbc4 de3b d83f 673c
00000050: 51b8 2d3c d7ab fcbc b151 873c e948 973c
00000060: ba49 bebb cbf5 10bd ffe2 7dbd 9dbc e6bc
00000070: 80bc 043d cd84 54bc 8b49 74bc bc9c bd3c
00000080: 46f6 b538 926f 093c be79 8dbd cfb7 8abb
00000090: 2271 78bc a3f3 2ebc 3a9c b1bd fb2b a43a
000000a0: 460b 043d 9ec1 d73c 1f26 863c 89ff 0fbc
000000b0: f2da 1f3c dd3a 53bb e38c 36b9 92c4 c1bc
000000c0: 6b84 b13c 82d3 083d 62cd 40bd 55f7 583d
000000d0: 4e5d 553b f1cb 9a3c 83dc dfbb 7328 3d3b
000000e0: ca19 58bd 8144 83bd 720d 91bc 9267 88bd
000000f0: bc79 88bb 2064 31bd d752 8a3d a079 d33c
-0.0007097357 -0.018379016 -0.024876313 -0.008682584 -0.04346424 -0.028101869 0.0017055182 -0.013123231
0.0113366665 -0.014593348 -0.014522747 -0.01060745 -0.0011635328 -0.018887063 0.024396507 -0.012516388
-0.006865251 -0.0221106 0.006798362 0.014114343 0.0106030265 -0.030843658 0.016518446 0.018467383
-0.0058071287 -0.035390656 -0.06198406 -0.02816611 0.03240633 -0.012971115 -0.014910112 0.023146026
8.6766246e-05 0.008388417 -0.06907986 -0.0042333375 -0.015163692 -0.010678205 -0.08672376 0.0012525314
0.032237314 0.026337441 0.0163756 -0.008788952 0.0097567905 -0.003223113 -0.00017409357 -0.023653302
0.021669587 0.033404835 -0.04707087 0.05297025 0.0032556835 0.018896075 -0.006831707 0.002886322
-0.05275897 -0.064095505 -0.017706607 -0.066603795 -0.0041649025 -0.043308377 0.06754082 0.025814831

action_net.weight f4 [1, 64]
00000000: da1d a13a d92f c4bc 6069 0bbd 33dc 9c3c
00000010: 7f00 39bd ee53 5dbd 572a 71bd f728 d9bb
00000020: 8f6a eb3a e86c f3b9 b4f9 06bb 9bf1 0dbd
00000030: 8d42 bcbd 3e02 12bd b36e 803d 9905 7cbd
00000040: 946e fc3c 02b2 203d 7818 a93c ca95 23be
00000050: e56e 51ba 749d f3bd 910d 54bc f350 a73d
00000060: 4771 953a 6b50 14bd 7863 ad3c 4a75 f93c
00000070: cce7 a33b 954f 93bc 8428 313c b30f 82bc
00000080: 59e2 f3bc e2c1 4fbc 65c9 d8bb f8e3 debd
00000090: e1a1 a5bc 37d2 d23d b057 1b3d 6190 863b
000000a0: b12c 7e3c 0e5b bdbc 2c8d ce3b f455 1339
000000b0: e08c c63d 6443 1ebe 66fa e5bd 01b7 d239
000000c0: 4865 18ba 8672 183d 377f bbbc 174e 9e3b
000000d0: 0829 443d 4a60 cabc 9f49 013e a41d 343b
000000e0: 32e4 0a3d e69f 55bc e9e4 933d 4745 f9bc
000000f0: fb6c 2fbc 4dd4 373c 5a2d 5abc 268b d93c
0.0012292222 -0.023948597 -0.03403604 0.019147968 -0.04516649 -0.05403512 -0.05887827 -0.006627198
0.0017960834 -0.00046429713 -0.0020595612 -0.03465424 -0.09192381 -0.03564667 0.06271114 -0.061528776
0.030814447 0.03923226 0.02064155 -0.15975109 -0.0007989242 -0.11895266 -0.012942688 0.08169737
0.0011401557 -0.036209505 0.021165594 0.030451436 0.0050019976 -0.017982284 0.010812882 -0.015876627
-0.029771017 -0.012680503 -0.006615805 -0.10883325 -0.020218791 0.102940015 0.037925422 0.004106567
0.015513585 -0.023114707 0.00630345 0.00014051032 0.096948385 -0.15455395 -0.112294 0.0004019067
-0.0005813432 0.037218593 -0.02288781 0.0048310864 0.047890693 -0.024704117 0.1262574 0.0027483488
0.03390903 -0.013038611 0.072213955 -0.030428542 -0.010707135 0.01122005 -0.013316477 0.026555609
