RingPong/RingPong_50K.onnx (onnx, 19914 bytes, 5 tensors)

mlp_extractor.policy_net.0.weight f4 [64, 4]
0.09920301 -0.11965826 0.4132036 0.12844348 0.088701904 0.022653695 0.33771527 0.23771271
0.3053461 0.010526972 -0.031400945 -0.03458043 -0.02684002 0.332899 -0.10351236 0.020919718
0.097307496 -0.22027896 0.027126774 -0.43387726 -0.23368196 -0.027759738 -0.16925593 -0.097815596
0.075137995 -0.311121 0.0154237505 0.016609924 -0.21286458 -0.054305978 0.065896876 -0.26007688
0.29855785 0.054525472 -0.08056484 0.11262255 0.45385668 0.17146632 -0.11822391 0.13738838
0.38942662 -0.14232683 -0.029483264 -0.003708264 0.5069521 -0.053750116 -0.018821094 -0.06099017
0.26903853 -0.1289921 -0.20426267 -0.27015188 0.43335485 0.063476644 0.18726563 0.09577551
0.17133908 -0.036001783 0.18728058 0.18334606 0.03712493 -0.21049316 -0.032839675 0.12435816
0.2076749 0.060117893 0.0028503907 -0.13308175 0.08152563 -0.1559939 -0.39605817 -0.12533738
-0.12263024 -0.29412425 0.1538728 0.048877504 -0.20063967 -0.019443646 -0.008007397 -0.16748998
0.16909239 0.11970541 0.13948867 0.048074868 -0.49122414 0.056064438 -0.071663715 -0.31707063
0.19533534 0.06485756 0.08204791 0.25789022 0.39853847 0.1626916 -0.06413553 0.17987992
-0.07988541 -0.010315799 0.4194663 -0.053822562 -0.1789282 -0.41416562 0.07514169 -0.19398934
0.3206631 -0.09714921 -0.11408651 -0.13196273 0.008930061 0.3483521 0.17648293 0.12161207
-0.09093925 0.7154545 -0.19041649 0.0022453372 -0.05790742 -0.11659766 0.22664487 -0.21798266
-0.21203303 0.021962386 0.16106007 0.0004341056 -0.0040148147 -0.5200879 -0.14455378 -0.23438989
-0.5774697 0.08239489 -0.3050297 -0.16851723 0.24050452 -0.009500497 -0.19598348 0.13983883
0.31828186 -0.00066833897 -0.057195626 -0.011673667 -0.39648196 0.04460348 -0.00020997135 0.013121611
-0.10571777 0.07876448 0.22840324 -0.050001584 0.07815837 0.16153534 -0.13642664 0.16988206
0.28942198 0.16846107 -0.048663408 -0.2481922 -0.000767651 0.32042623 0.0787226 0.1317261
0.11964273 -0.03440683 0.08921783 0.21361084 -0.15541704 0.18262963 0.4114257 -0.16573088
0.4450118 -0.17263891 -0.12918654 -0.45214534 -0.25315702 0.08683169 -0.30491146 0.08082173
0.21539783 0.13344876 -0.38017017 0.016691048 -0.04613985 -0.1383011 -0.12686734 0.17210266
-0.23266385 -0.025628548 0.07094946 -0.3187596 0.113773964 0.18717068 -0.07806476 0.11331442
0.30915794 0.053991225 0.18536092 0.051668428 0.18535839 0.12114834 0.00479867 0.0700401
0.18393071 0.10468992 -0.080588736 -0.16151093 -0.14480093 -0.05133578 0.023468293 -0.17653003
0.16414595 0.28246126 0.45293894 -0.42337698 -0.00582608 0.15410595 -0.1080643 0.17907238
-0.64345026 0.20504162 -0.00016415809 -0.17682786 0.3997191 -0.16360667 0.17352194 -0.18454039
0.20891765 -0.1832269 -0.0021489921 -0.077149354 -0.08907464 0.045993987 0.24822964 -0.19441687
0.15403314 -0.24669316 -0.22186631 -0.46232495 -0.12750576 -0.16316777 0.0011022069 -0.08579691
-0.4123106 0.32308006 0.058171347 0.21117958 0.021401549 0.30927452 0.203098 -0.13411972
-0.2644776 0.45762607 -0.14191723 -0.17277123 -0.18533903 0.09610182 -0.0794208 -0.41002196
00000000: f32a cb3d 640f f5bd 6c8f d33e b086 033e
00000010: 58a9 b53d 3e94 b93c 04e9 ac3e f66a 733e
00000020: 5356 9c3e 5279 2c3c 479e 00bd 35a4 0dbd
00000030: 9adf dbbc bd71 aa3e 4afe d3bd d45f ab3c
00000040: 2749 c73d cf90 61be f838 de3c 2925 debe
00000050: 534a 6fbe 6468 e3bc 6d51 2dbe 8b53 c8bd
00000060: f3e1 993d 404b 9fbe e6b3 7c3c 8911 883c
00000070: 2cf9 59be f26f 5ebd f1f4 863d cc28 85be
00000080: 93dc 983e 1a56 5f3d 2eff a4bd a7a6 e63d
00000090: e75f e83e de94 2f3e 611f f2bd 8aaf 0c3e
000000a0: ed62 c73e 20be 11be e386 f1bc 5906 73bb
000000b0: 9dc7 013f 1529 5cbd b22e 9abc d4d0 79bd
000000c0: 6bbf 893e 8116 04be 3c2a 51be 5951 8abe
000000d0: b0e0 dd3e 0b00 823d 90c2 3f3e f325 c43d
000000e0: 8373 2f3e 9b76 13bd 7bc6 3f3e 12bf 3b3e
000000f0: 5010 183d 858b 57be e582 06bd 7eaf fe3d
00000100: bba8 543e 2e3e 763d 9fcd 3a3b 9546 08be
00000110: e9f6 a63d ddbc 1fbe 23c8 cabe 7158 00be
00000120: 9025 fbbd 7497 96be d590 1d3e c733 483d
00000130: 7c74 4dbe 4848 9fbc 7531 03bc 7e82 2bbe
00000140: 8e26 2d3e 1c28 f53d 1ed6 0e3e 27ea 443d
00000150: bb81 fbbe d3a3 653d 6dc4 92bd 1557 a2be
00000160: fd05 483e 0ad4 843d bc08 a83d 300a 843e
00000170: 3c0d cc3e a098 263e 7d59 83bd 7132 383e
00000180: f69a a3bd 9903 29bc 49c4 d63e 0c75 5cbd
00000190: f438 37be 840d d4be e3e3 993d 24a5 46be
000001a0: f42d a43e 2af6 c6bd 30a6 e9bd 3d21 07be
000001b0: 644f 123c 355b b23e f1b7 343e c00f f93d
000001c0: 5c3e babd 0728 373f 8afc 42be 8226 133b
000001d0: 5530 6dbd c1ca eebd 9815 683e d936 5fbe
000001e0: 301f 59be 76ea b33c eeec 243e ab98 e339
000001f0: b58e 83bb 7b24 05bf e805 14be e703 70be
00000200: 0ed5 13bf a7be a83d da2c 9cbe c88f 2cbe
00000210: d146 763e f9a7 1bbc e5af 48be e931 0f3e
00000220: d7f5 a23e 7833 2fba f645 6abd e842 3fbc
00000230: afff cabe 23b2 363d c12b 5cb9 07fc 563c
00000240: 8f82 d8bd 464f a13d 8ae2 693e 76ce 4cbd
00000250: 7f11 a03d 8569 253e 6db3 0bbe 90f5 2d3e
00000260: 1e2f 943e 0f81 2c3e 4853 47bd 1926 7ebe
00000270: 303c 49ba e80e a43e 5139 a13d 35e3 063e
00000280: 3f07 f53d 2dee 0cbd d6b7 b63d cdbc 5a3e
00000290: a525 1fbe 4303 3b3e 64a6 d23e 5bb5 29be
000002a0: 96d8 e33e 41c8 30be 7a49 04be 987f e7be
000002b0: cc9d 81be d0d4 b13d 5b1d 9cbe dd85 a53d
000002c0: 4091 5c3e cba6 083e aaa5 c2be aabb 883c
000002d0: 24fd 3cbd ce9e 0dbe 83e9 01be ae3b 303e
000002e0: 6f3f 6ebe f6f2 d1bc f34d 913d 7534 a3be
000002f0: 5302 e93d aca9 3f3e 6be0 9fbd 6411 e83d
00000300: f349 9e3e e725 5d3d 41cf 3d3e 46a2 533d
00000310: 97ce 3d3e 9f1c f83d 293e 9d3b 2f71 8f3d
00000320: 5558 3c3e ab67 d63d b50b a5bd 1f63 25be
00000330: b246 14be 7845 52bd 9440 c03c 4ac4 34be
00000340: e015 283e c39e 903e 9de7 e73e dec4 d8be
00000350: b4e8 bebb f3cd 1d3e d150 ddbd c05e 373e
00000360: 28b9 24bf 6ef6 513e da21 2cb9 5d12 35be
00000370: fba7 cc3e 8288 27be bcaf 313e 28f8 3cbe
00000380: 82ee 553e d59f 3bbe 1bd6 0cbb 7b00 9ebd
00000390: c46c b6bd 3164 3c3d e92f 7e3e 3715 47be
000003a0: ddba 1d3e 229d 7cbe ec30 63be dbb5 ecbe
000003b0: df90 02be 7415 27be ed77 903a 4ab6 afbd
000003c0: 601a d3be c06a a53e 1445 6e3d 763f 583e
000003d0: 4d52 af3c 3b59 9e3e ecf8 4f3e ae56 09be
000003e0: 9c69 87be f74d ea3e c052 11be f1ea 30be
000003f0: 84c9 3dbe 08d1 c43d 5fa7 a2bd 66ee d1be

mlp_extractor.policy_net.0.bias f4 [64]
-0.030233555 -0.015154745 -0.023045395 0.027407221 -0.050483007 0.0072132633 -0.070639744 -0.018751802
-0.039256267 -0.05534766 -0.004828347 -0.04981317 -0.058428217 0.0025318286 0.0027902382 0.032016993
-0.09467117 -0.05907152 -0.008452145 -0.030316558 0.031280845 -0.005071462 0.013997808 -0.0021930377
0.031374868 -0.04708724 -0.04102948 0.057246353 0.036592934 -0.043595374 0.027208347 -0.044078037
0.038058575 -0.047038157 -0.024353486 -0.004977189 0.042013813 -0.0018701889 0.0004869888 0.05314377
0.023778768 0.04552508 -0.058147173 0.04249048 -0.02651769 0.030851815 -0.00022183039 0.08145796
-0.044568617 -0.0005494505 -0.038044047 -0.030648442 0.08871181 0.03614375 -0.005452227 -0.044832382
-0.03924593 0.0781738 -0.0800618 -0.011217715 -0.0012608393 0.04504884 -0.048697103 -0.029185666
00000000: 5cac f7bc 9c4b 78bc b2c9 bcbc 1c85 e03c
00000010: 45c7 4ebd 3d5d ec3b 92ab 90bd 619d 99bc
00000020: 2ecb 20bd 3ab4 62bd 1c37 9ebb e508 4cbd
00000030: 6d52 6fbd 09ed 253b 6edc 363b 4024 033d
00000040: f5e2 c1bd faf4 71bd de7a 0abc 6e5a f8bc
00000050: 5820 003d 822e a6bb 1057 653c 11b9 0fbb
00000060: ef82 003d 8dde 40bd 870e 28bd 277b 6a3d
00000070: 79e2 153d 1091 32bd 0ae4 de3c 2c8b 34bd
00000080: 4fe3 1b3d 15ab 40bd f680 c7bc b017 a3bb
00000090: ad16 2c3d 2021 f5ba 8852 ff39 48ad 593d
000000a0: b1cb c23c 8278 3a3d bb2b 6ebd 7f0a 2e3d
000000b0: a03b d9bc f2bc fc3c 249b 68b9 6ed3 a63d
000000c0: 958d 36bd 0009 10ba 13d4 1bbd 7112 fbbc
000000d0: 8aae b53d 780b 143d 98a8 b2bb 29a2 37bd
000000e0: 57c0 20bd 9619 a03d 71f7 a3bd 82ca 37bc
000000f0: bf42 a5ba 2285 383d 9d76 47bd c716 efbc

mlp_extractor.policy_net.2.weight f4 [64, 64]
0.16691627 0.17081006 0.1788335 0.19221699 0.27954444 -0.14816646 -0.21755184 -0.17479898
-0.08381779 0.06445156 0.102150366 0.22952965 0.06600947 0.02676809 0.05686299 0.147451
0.1223011 -0.2639278 0.4008444 -0.07865903 0.024386669 0.20980929 0.07937728 0.066630565
-0.041181132 0.14095557 0.3760634 0.053648863 0.01089195 0.24728097 0.20910166 -0.007042821
-0.21735485 0.104616836 0.029084247 -0.23400885 -0.10786909 -0.03277005 -0.4539554 -0.1877057
0.2957111 -0.07789333 0.31884325 0.14742737 -0.018513646 0.16170657 0.078206606 0.044346742
0.084128715 0.53140074 0.18357116 0.15148073 -0.013220785 -0.3196029 -0.0959348 0.27853537
-0.023560815 0.21789534 0.21517068 0.05297454 0.037384015 0.18269514 0.12618876 -0.0376812
0.20030878 -0.1293027 0.19026183 0.009067238 0.12700006 -0.06844687 -0.1379889 -0.17583734
0.15196864 0.021110289 -0.03321441 -0.2321735 0.05362803 0.11183004 0.308798 0.12755814
-0.3327531 -0.04118184 -0.4319104 0.08503235 0.016664613 -0.17136215 0.16489582 -0.17702135
-0.1610263 0.27307698 0.088131316 -0.153399 0.35759264 0.12418822 0.18182303 -0.2127144
-0.2980736 -0.15007429 0.058322627 -0.09340087 -0.2535256 -0.10226175 0.022057403 0.1010624
0.24391185 -0.2869148 0.014240944 -0.019523276 -0.09640118 -0.0013927409 -0.056709103 0.06625262
-0.49204066 -0.13936159 -0.26931563 -0.18229146 0.06158148 -0.099469095 -0.018682245 1.17627e-05
-0.033304635 0.038827054 -0.13615112 -0.055333715 -0.07489521 -0.0154784955 0.44340542 0.14416015
-0.1490733 0.00076775416 0.27382872 -0.0015566837 0.10333083 0.24314159 0.0033981004 -0.13120995
0.05628583 -0.08225486 0.113272056 -0.00013864992 0.16278365 -0.30714172 -0.08599363 -0.024771884
0.25020242 0.5517402 -0.25143787 -0.17370111 0.13147591 -0.044122715 -0.072622776 0.38257024
-0.0807048 0.14736879 0.037242062 -0.10766898 -0.25638866 -0.26577917 -0.17709903 0.13096648
-0.32440016 0.20778334 0.25927365 -0.3287655 -0.46397394 0.02112297 -0.11191006 0.12912054
0.2451267 -0.2519341 0.19297343 -0.06600388 0.10318525 -0.17179406 0.0735098 -0.008318072
-0.123408034 -0.15168405 0.20963567 0.2206343 -0.20958115 0.19777754 -0.2518076 -0.094926216
0.3151207 0.07281913 0.42506808 -0.0091171255 -0.07075434 0.13167319 0.07239539 0.039745912
0.38629773 -0.18297474 -0.18935889 0.029537005 -0.11468619 0.0483909 0.021030845 -0.21009837
-0.012761854 0.01641247 -0.15923573 0.031028153 0.060516104 0.34806564 -0.017427579 -0.07212589
-0.43696108 0.104501106 0.15825254 -0.023462841 0.15802337 -0.09208788 -0.072532885 -0.21614584
0.21722077 -0.15453477 -0.00045871994 0.03347045 -0.21828346 -0.13431227 -0.20966 -0.10026603
-0.26049134 -0.17598678 -0.21769182 0.16086772 -0.23899315 0.048228927 -0.26381752 0.11266273
-0.1715113 -9.093283e-05 -0.0052926713 -0.03655858 -0.12193785 0.13901006 0.3080706 0.19859913
0.3024313 -0.046913613 0.029042985 0.029247371 0.14485016 -0.111613095 -0.20552991 0.19168264
0.34568763 0.21841192 0.32990855 -0.24505976 -0.24728845 -0.012811483 0.13997951 -0.037413687
00000000: 19ec 2a3e d5e8 2e3e 2120 373e 88d4 443e
00000010: 7320 8f3e f3b8 17be e9c5 5ebe 81fe 32be
00000020: a9a8 abbd 2eff 833d 3634 d13d d209 6b3e
00000030: f92f 873d c148 db3c 2be9 683d 65fd 163e
00000040: 0079 fa3d 8b21 87be 7a3b cd3e fc17 a1bd
00000050: 8dc6 c73c 3fd8 563e 8e90 a23d 9b75 883d
00000060: 8cad 28bd a856 103e 628b c03e e9be 5b3d
00000070: 2674 323c 3937 7d3e bf1e 563e 77c7 e6bb
00000080: 4592 5ebe 5a41 d63d 1642 ee3c 04a0 6fbe
00000090: 78ea dcbd e339 06bd d86c e8be ec35 40be
000000a0: 7267 973e 8a86 9fbd 6c3f a33e 33f7 163e
000000b0: eea9 97bc 6896 253e c92a a03d eea4 353d
000000c0: ad4b ac3d e109 083f 14fa 3b3e c41d 1b3e
000000d0: fe9b 58bc fea2 a3be 7779 c4bd 309c 8e3e
000000e0: 9c02 c1bc f51f 5f3e b455 5c3e d5fb 583d
000000f0: fb1f 193d 6f14 3b3e a037 013e 9a57 1abd
00000100: bf1d 4d3e ed67 04be ffd3 423e c18e 143c
00000110: 4e0c 023e df2d 8cbd f64c 0dbe b40e 34be
00000120: ab9d 1b3e 7cef ac3c d50b 08bd e4be 6dbe
00000130: 11a9 5b3d 2607 e53d c51a 9e3e 9a9e 023e
00000140: 9d5e aabe 4aae 28bd 5c23 ddbe 7125 ae3d
00000150: 3a84 883c 8f79 2fbe 73da 283e 1645 35be
00000160: 14e4 24be bfd0 8b3e 317e b43d a114 1dbe
00000170: 6216 b73e 6556 fe3d d12f 3a3e ced1 59be
00000180: 1a9d 98be 13ad 19be b5e3 6e3d f548 bfbd
00000190: 1cce 81be 9c6e d1bd bab1 b43c cef9 ce3d
000001a0: 07c4 793e 7fe6 92be d952 693c 47ef 9fbc
000001b0: fb6d c5bd a18c b6ba ce47 68bd 74af 873d
000001c0: c1ec fbbe ceb4 0ebe bde3 89be 9daa 3abe
000001d0: dd3c 7c3d 74b6 cbbd 820b 99bc 6958 4537
000001e0: 716a 08bd 1e09 1f3d 336b 0bbe 9ba5 62bd
000001f0: a962 99bd 8499 7dbc 0906 e33e b89e 133e
00000200: aca6 18be 1c43 493a 4733 8c3e a309 ccba
00000210: 1d9f d33d 1cfa 783e aab2 5e3b e75b 06be
00000220: f88b 663d 3c75 a8bd 2efb e73d 8e62 11b9
00000230: c2b0 263e ae41 9dbe 6e1d b0bd 68ee cabc
00000240: 881a 803e d93e 0d3f 77bc 80be b4de 31be
00000250: 9fa1 063e 05ba 34bd 40bb 94bd 3fe0 c33e
00000260: 8f48 a5bd d8e7 163e 228b 183d 8e81 dcbd
00000270: 6045 83be 3514 88be 7359 35be 141c 063e
00000280: c717 a6be 28c5 543e 84bf 843e f453 a8be
00000290: fe8d edbe 140a ad3c 1a31 e5bd 2d38 043e
000002a0: 7e02 7b3e 82fd 80be d49a 453e 0b2d 87bd
000002b0: ca52 d33d c8ea 2fbe 4e8c 963d 8648 08bc
000002c0: 5abd fcbd 1053 1bbe bcaa 563e f5ed 613e
000002d0: 719c 56be 3286 4a3e edec 80be ad68 c2bd
000002e0: 8057 a13e 3222 953d 86a2 d93e ff5f 15bc
000002f0: a7e7 90bd 56d5 063e 0944 943d 9ccc 223d
00000300: d1c8 c53e bb5d 3bbe 4ce7 41be 97f7 f13c
00000310: 98e0 eabd 8935 463d e148 ac3c 0724 57be
00000320: 1817 51bc 7273 863c b10e 23be c12e fe3c
00000330: bcdf 773d a935 b23e 48c4 8ebc bdb6 93bd
00000340: 5db9 dfbe ad04 d63d f40c 223e 2535 c0bc
00000350: e1d0 213e 9298 bcbd 1f8c 94bd 5655 5dbe
00000360: 1f6f 5e3e 5d3e 1ebe 5980 f0b9 5018 093d
00000370: b385 5fbe 2889 09be 1cb1 56be 4758 cdbd
00000380: 1f5f 85be e135 34be 9bea 5ebe 82ba 243e
00000390: 9fba 74be b28b 453d 1713 87be b8bb e63d
000003a0: a9a0 2fbe 31b3 beb8 256e adbb 73be 15bd
000003b0: 8dba f9bd a758 0e3e 6ebb 9d3e 925d 4b3e
000003c0: 46d8 9a3e 7d28 40bd 8eeb ed3c 2f98 ef3c
000003d0: 9a53 143e 6895 e4bd 6f76 52be 7448 443e
000003e0: f8fd b03e 60a7 5f3e c6e9 a83e f2f0 7abe
000003f0: 2f39 7dbe 41e7 51bc ca56 0f3e 183f 19bd

mlp_extractor.policy_net.2.bias f4 [64]
-0.039062593 0.0072410367 -0.04319479 0.065068506 -0.0027313167 0.03977942 0.008816515 -0.0074970387
0.01177895 -0.020710867 -0.011023461 -0.026096284 0.045323756 0.040603675 0.065931305 0.0049561425
-0.03744505 0.009264276 0.012695693 0.006558512 0.04213717 -0.022938708 0.028092211 0.015254459
0.051197827 -0.034187302 0.023554588 0.017489502 0.020469045 -0.045906965 -0.016720308 0.011021487
0.010783551 -0.027001837 -0.026129074 -0.023050707 0.01419732 -0.0036394852 -0.015797995 -0.026214067
0.03548779 -0.029259767 -0.010274433 -0.02028524 -0.04885249 0.038903296 -0.030767608 0.0074078934
0.021143956 0.008012736 -0.04583381 -0.012266582 -0.04146018 0.031099752 0.020882625 -0.0027833446
-0.035957888 0.017740022 0.03050203 -0.02258909 0.016941974 0.007890091 0.019970033 -0.027938256
00000000: 1900 20bd 3846 ed3b 05ed 30bd a342 853d
00000010: e4ff 32bb bfef 223d 2573 103c b8a9 f5bb
00000020: 7ffc 403c d6a9 a9bc bf9b 34bc e0c7 d5bc
00000030: 67a5 393d 0a50 263d fe06 873d 2367 a23b
00000040: fb5f 19bd 31c9 173c 9901 503c c9e8 d63b
00000050: 0698 2c3d f5e9 bbbc a321 e63c d7ed 793c
00000060: d0b4 513d fc07 0cbd 8df5 c03c 2546 8f3c
00000070: b3ae a73c f108 3cbd 07f9 88bc 7893 343c
00000080: 7ead 303c f532 ddbc a40c d6bc d6d4 bcbc
00000090: e09b 683c 6e84 6ebb cc6a 81bc e2be d6bc
000000a0: a55b 113d 2eb2 efbc 1856 28bc 3b2d a6bc
000000b0: 8c19 48bd 1059 1f3d 5a0c fcbc eabd f23b
000000c0: 1736 ad3c da47 033c 3cbc 3bbd c6f9 48bc
000000d0: 26d2 29bd e8c4 fe3c 0a12 ab3c c668 36bb
000000e0: 9448 13bd 8653 913c 65df f93c c10c b9bc
000000f0: e5c9 8a3c 7145 013c 3298 a33c c5de e4bc

action_net.weight f4 [1, 64]
0.050840463 0.09959558 0.07739569 0.008633618 0.06536811 -0.00053124403 -0.01543379 0.06596714
0.06475053 0.06316407 -0.065494984 0.06599412 0.013544753 0.018081829 -0.14352907 -0.034349747
-0.002117097 -0.009997764 0.019911371 0.016365984 0.013781516 -0.01344336 -0.014023547 0.019921979
0.0056843217 8.783614e-05 0.024102591 -0.03583088 0.008076203 -0.0039472017 0.053027604 -0.08137233
0.038435888 0.0354738 0.067009225 -0.029610373 -0.09960262 -0.08346236 -0.038896013 -0.016513366
0.009590772 -0.034659993 0.009163725 0.064738706 -0.048409477 -0.12703004 0.032069813 0.043228474
-0.15084794 0.033892293 0.08998893 0.014210738 -0.019645095 0.0053784205 -0.062302634 0.020516705
0.00013948111 0.050121382 -0.10783668 -0.012181726 0.03950702 0.007722478 -0.0070887376 -0.049224876
00000000: 173e 503d c4f8 cb3d a281 9e3d 0574 0d3c
00000010: b7df 853d 2f43 0bba 02de 7cbc c819 873d
00000020: ed9b 843d 2a5c 813d 3c22 86bd ed27 873d
00000030: d0ea 5d3c 5820 943c 49f9 12be 52b2 0cbd
00000040: febe 0abb a9cd 23bc 2c1d a33c f511 863c
00000050: decb 613c 8a41 5cbc 05c3 65bc 6b33 a33c
00000060: 8c43 ba3b ab34 b838 cc72 c53c 67c3 12bd
00000070: 0d52 043c 8757 81bb 7933 593d 89a6 a6bd
00000080: f36e 1d3d fa4c 113d 223c 893d 7491 f2bc
00000090: 75fc cbbd 50ee aabd 6d51 1fbd 0a47 87bc
000000a0: 9d22 1d3c a3f7 0dbd 7323 163c ba95 843d
000000b0: 0449 46bd 2a14 02be a35b 033d 5710 313d
000000c0: e277 1abe a5d2 0a3d 1e4c b83d 28d4 683c
000000d0: c0ee a0bc 763d b03b 0c31 7fbd a612 a83c
000000e0: ad41 1239 144c 4d3d 7ad9 dcbd dd95 47bc
000000f0: 1dd2 213d d70c fd3b a448 e8bb 06a0 49bd
