JumpHard/JumpHard.x86_64.onnx (onnx, 58326 bytes, 6 tensors)

mlp_extractor.policy_net.0.weight f4 [64, 152]
000000 48 39 f3 bd fd 23 0d 3e 38 0f 18 bd 50 ac 0e be
       -0.1187616 0.1378326 -0.03712389 -0.1393292
000010 3e 12 8c bd b7 ab 38 bd af 25 27 3d a6 35 f7 3d
       -0.06839417 -0.045085635 0.040807422 0.120707795
000020 53 ca 81 3d f1 01 48 3e 32 d2 35 bd a2 63 27 3e
       0.063374184 0.1953199 -0.04438991 0.163466
000030 eb 0f b9 bd ad a6 26 be 84 a7 02 3d 93 d1 3a 3e
       -0.09036239 -0.1627452 0.031898037 0.18244009
000040 fe c2 ee 3d de b0 1e be 0c 32 4a bd be 25 8e bc
       0.116582856 -0.15497157 -0.049364135 -0.017351981
000050 71 7d 80 bd 95 41 23 3e 2a 09 2f 3e 70 f6 38 3e
       -0.06273926 0.15942986 0.1709334 0.18062758
000060 60 4f fa 3d 55 3e 0b be 1d ea 00 3e 2e c5 ee 3d
       0.12222171 -0.13597997 0.12589307 0.11658703
000070 e8 5e 2d bd 7c 57 64 be 93 00 5e bd 5a 68 f9 3d
       -0.042326838 -0.22298998 -0.054199766 0.121781066
000080 3f 36 3e be ef 21 e0 3b c1 b5 fd bd b1 33 7e 3e
       -0.1857538 0.0068399827 -0.123881824 0.24824406
000090 f9 cf 4d bd 91 8e df bb 1a 04 03 bd c0 84 22 3c
       -0.050247166 -0.006822415 -0.031986333 0.009919345
0000a0 bb 9c 3c 3e 22 6b 39 be 25 af 82 3d 5b 74 68 be
       0.18419163 -0.18107274 0.063810624 -0.22700636
0000b0 fd 02 88 3e 7a ba 3d be 86 72 42 be c9 e0 11 bd
       0.2656478 -0.18528166 -0.18989 -0.035614762
0000c0 5d e5 fc 3c b4 13 8c be 11 8c 1c be 68 80 1b 3c
       0.030871088 -0.27358782 -0.15287806 0.009491064
0000d0 d2 c1 0a be 7c 1c fa bd 0b 1a 4d be 5d 9d 19 bc
       -0.13550499 -0.12212464 -0.20029466 -0.009375897
0000e0 ff 46 b8 3d 26 52 4b 3d fd 6c 28 be b3 03 cd 3d
       0.089979164 0.04963889 -0.16447826 0.10010471
0000f0 49 cd f5 39 b7 ca 1e be 66 8d 4d 3c a7 e5 21 bd
       0.0004688299 -0.15507017 0.012545919 -0.039525654
000100 1b 99 16 3e 4f bc 10 be b1 28 0b 3e 06 11 3a be
       0.14706843 -0.14134334 0.13589741 -0.18170556
000110 e3 2f 84 bd da b9 cc bd e9 b3 ba 3d 74 a0 c6 bd
       -0.06454446 -0.09996386 0.091163464 -0.09698573
000120 76 30 de 3d 9a 4d 1a 3e f2 a6 bd 3d 72 6b 72 3d
       0.10849087 0.15068665 0.09260358 0.0591845
000130 ab 5d 8e 3c 11 02 8d bc 41 62 1d bd 61 10 2a 3e
       0.017378649 -0.0172129 -0.03842378 0.1660781
000140 3b 23 55 3d 1e bb e1 3d 11 8e 5e 3d 06 6b 22 bd
       0.05203555 0.11022018 0.054334704 -0.039652847
000150 22 26 2a 3d 37 7b 09 3c 40 a2 82 bd aa 73 d0 bd
       0.041540273 0.008391193 -0.06378603 -0.10178311
000160 72 e2 09 bc 93 e8 fe 3c 6a 8b 56 3e f6 80 0d be
       -0.008415805 0.03111676 0.2095162 -0.13818726
000170 8b 8a 8c bd 20 2d b2 bd 42 ac 6d bd 23 cf fe bc
       -0.068623625 -0.08700013 -0.058025606 -0.03110463
000180 d9 7f 74 3c a8 05 18 bc 6a dc 4c be 0b 7c c5 bd
       0.014923059 -0.009278692 -0.20005956 -0.096428
000190 5c 02 05 3e 81 cc eb bd d8 e7 ac 3e ca aa 02 3e
       0.12989181 -0.115136154 0.33770633 0.12760463
0001a0 84 18 21 3d bd ac 0f be 3e 99 b3 3d a4 b9 d5 3e
       0.03933002 -0.14030738 0.08769463 0.41743195
0001b0 9a f2 a1 3d 5b 3a 85 3d 97 49 a4 be 38 90 b7 3d
       0.07907601 0.06505271 -0.32087395 0.089630544
0001c0 6d 16 42 3d a5 c7 05 3e 87 40 8e 3d a9 4b 1b 3c
       0.04738467 0.1306444 0.06945901 0.009478488
0001d0 9f a1 4a be 23 01 a9 be ec d0 7f 3d 3e ef 83 3d
       -0.19788216 -0.3300868 0.062455103 0.06442116
0001e0 dd 2c c4 bd f6 82 d0 bd 90 c2 87 ba 7c 1f 06 be
       -0.095788695 -0.10181229 -0.0010357667 -0.13097948
0001f0 ec c4 70 3e 90 7f 6f 3e d5 d4 95 3d 64 00 93 3d
       0.2351262 0.23388505 0.07315985 0.07177809
000200 d8 03 a2 bb 02 60 99 bd ee 71 63 be ed d9 7f 3c
       -0.004944306 -0.07489015 -0.2221143 0.015615922
000210 3d 49 2b 3e 35 21 0b be 18 2e 06 be 23 c1 45 3b
       0.16727157 -0.13586886 -0.13103521 0.0030174933
000220 f1 40 1f 3e bf 04 74 3d 53 72 29 3e aa c6 6b 3e
       0.15552117 0.05957484 0.16547517 0.23025003
000230 0f ae 92 3d 30 8d f5 bd 05 11 60 3b ab 5c 12 3e
       0.07162105 -0.1198982 0.0034189832 0.14293163
000240 8c 85 2b 3c cf 4c 16 be 66 d1 bd bd bd 85 ec bc
       0.010468852 -0.14677738 -0.09268455 -0.028872365
000250 9e 89 32 3e 18 c0 5b be 80 a5 08 3e 24 a6 0f 3e
       0.1743531 -0.21459997 0.13344383 0.14028221
000260 8a 5f 93 3d 1f ae bc bd ba db 4c 3e 08 8b 7e 3d
       0.07195957 -0.092128985 0.20005694 0.06214431
000270 23 74 3e 3e 1d d1 44 bc ca cf cf bc 85 75 03 3d
       0.1859899 -0.012012747 -0.025367636 0.032094497
000280 06 d6 64 be 51 a8 3d 3c e7 0e e5 bd bf 1e 9f be
       -0.22347268 0.011575774 -0.11184483 -0.31078145
000290 f4 7d 85 be 61 ea a8 bd ac 91 79 b9 ef eb 1e be
       -0.26072657 -0.08247829 -0.00023800757 -0.15519689
0002a0 09 ab 96 3d 10 38 89 3e 73 10 07 bc 8d d0 2b bd
       0.07356841 0.26800585 -0.008243668 -0.041946936
0002b0 0b 5e 88 bd 00 e8 ed bd 2e 2a 8f 3d e6 99 84 3d
       -0.06658562 -0.11616516 0.06990467 0.06474666
0002c0 f2 72 1b be c5 6b 16 be 43 63 f3 3d a9 0d ce 3b
       -0.15180567 -0.14689548 0.11884167 0.0062882495
0002d0 87 1d e9 3d c6 46 6c 3d 14 f4 7c 3e ee 81 e0 3c
       0.11382585 0.057684682 0.24702483 0.027405705
0002e0 da 60 0a be 11 94 5b bc 37 8f 75 bd 2c 4e 03 be
       -0.13513508 -0.013402001 -0.059951033 -0.12822789
0002f0 db 49 5a be b5 55 a5 3d b5 a1 5e be 98 17 8f 3e
       -0.21317236 0.08072988 -0.21741374 0.27947688
000300 6b 37 aa bd d1 4c 92 bc 52 c4 70 3e 7f 75 65 3d
       -0.083113514 -0.017858895 0.2351239 0.056020256
000310 d9 ad 0d bd 1e 41 25 3e 1b ef 6f bd 7f 1c a0 3d
       -0.034589622 0.16138121 -0.058577638 0.07817935
000320 d1 6b fc bd f0 ec c5 bd 17 a8 c3 3c 51 b2 0a 3e
       -0.12325252 -0.09664333 0.023883862 0.13544585
000330 f7 32 6e 3d 58 53 cc 3d 47 a0 3d 3e c4 4f 48 3e
       0.058154073 0.09976834 0.18518172 0.19561678
000340 7c 74 af bd 91 e1 0c be eb 3c bc 3d b3 ee 85 bd
       -0.085671395 -0.13757922 0.09191307 -0.06539669
000350 61 9e 33 3e b9 8b 0f 3d 51 1c 0a 3e 88 7b 8e 3d
       0.17540886 0.03504536 0.13487364 0.069571555
000360 4d 8c 97 3b d7 e5 98 bc 9d 0c 0f be c6 ef 64 bd
       0.0046248795 -0.018664284 -0.13969655 -0.05589273
000370 6f cc aa bc 42 9f 85 3e 3c 6b 1a 3d 90 15 62 3d
       -0.020849435 0.26098067 0.037699923 0.055196345
000380 dc 24 62 3c 2c fb b2 3d 8c d6 78 3e 03 d8 10 3e
       0.013802733 0.087393135 0.24300593 0.14144902
000390 d1 df 2a 3e cb 1e 80 3b db 2b 4d bc f2 e1 a5 bb
       0.16686942 0.003909921 -0.012522663 -0.005062335
0003a0 19 9e 62 bc c1 a2 59 3e 37 e0 5b bd 8d 2c 43 3e
       -0.013831639 0.21253492 -0.053680625 0.19059964
0003b0 0e b0 02 be dc 86 eb bc 0f 7a 58 3e 8b 51 c6 bc
       -0.12762472 -0.02875083 0.21140312 -0.024208805
0003c0 d2 03 69 bc 2b 7c 2e 3d 3e f3 a9 be 22 ac 03 bd
       -0.014222102 0.042598885 -0.33193392 -0.03214658
0003d0 70 4d ad bd 55 0c 26 bd cf db ea 3c 7f bd 9c 3d
       -0.08462036 -0.040539104 0.028669266 0.07653331
0003e0 5f 0b ab 3b 0e 03 ed 3d 61 e5 d1 bd 63 19 05 be
       0.0052198614 0.11572848 -0.10248829 -0.12997966
0003f0 92 79 53 3e e6 54 85 be 9c 16 1c be db a1 48 3d
       0.20651844 -0.26041335 -0.15243 0.048982482

mlp_extractor.policy_net.0.bias f4 [64]
000000 07 fb 41 bc 92 c8 f3 ba 9d 12 0d 3d c2 17 39 3d
       -0.011839635 -0.0018599203 0.03444158 0.045188673
000010 ae 29 c3 bc 05 b1 c5 3c 7f db da 3b 32 13 c1 ba
       -0.023823585 0.024132261 0.006678998 -0.0014730452
000020 5a 8b 28 bc 90 2f d8 ba 80 7b f5 bc bc 6e 56 bd
       -0.01028713 -0.0016493667 -0.029966116 -0.0523517
000030 36 df 33 3d 99 5b d5 bc 1b 59 53 bc 9a 8b 5d bc
       0.043914042 -0.026044654 -0.012899662 -0.013522053
000040 96 07 b9 bb a4 40 64 bc cc 07 a7 3b 27 89 21 bd
       -0.0056466563 -0.013931427 0.005097365 -0.03943744
000050 c2 7c 15 bd fc 9a 9a bc 58 6c 51 3d 7e 88 e6 bc
       -0.03649593 -0.01887273 0.051128715 -0.028141256
000060 6f f9 d2 bc 39 a7 20 3c dd 44 2e 3d a9 d8 d6 3c
       -0.025753705 0.009805494 0.042546142 0.026226358
000070 87 50 ec ba 05 6b 47 3c 48 3a 9c 3c 4f 94 95 3d
       -0.001802937 0.012171512 0.01907076 0.07303678
000080 0a dd 17 3c 18 7d c1 3b b2 21 1f bd 60 03 27 3d
       0.009269008 0.005904805 -0.038850494 0.040774703
000090 74 f5 32 3c c6 ba 95 bc 00 74 0a 3d 19 b7 f3 3c
       0.010922778 -0.018277537 0.033802032 0.029750394
0000a0 44 98 86 3d 2a a6 35 bd ea d0 78 bd 20 61 74 bc
       0.06572011 -0.04434792 -0.06074611 -0.0149157345
0000b0 47 77 b9 bc 52 b3 ab 3b c9 a7 1f bc fd 5e c3 3c
       -0.022639884 0.0052398825 -0.009744593 0.023849005
0000c0 97 54 ee 3c fe 20 32 3d bb 90 d9 3b 90 bd 81 3c
       0.02909307 0.043488495 0.0066395677 0.01583746
0000d0 6c ec 8f 3d 34 ce 1c 3b 4f 83 6a bd 01 dc ab 3c
       0.07027516 0.0023926618 -0.057254132 0.02097893
0000e0 a2 80 20 3d 57 0c 3d 3d 54 c1 0b 3d 5c 91 9d 3c
       0.039185174 0.046154346 0.03411992 0.019234352
0000f0 ce b6 8d 3c 4f f7 5e 3b 24 1d 29 3d ab 57 7b bd
       0.017299082 0.003402192 0.041287556 -0.061362904

mlp_extractor.policy_net.2.weight f4 [64, 64]
000000 e2 f7 71 3d 2f 1d 21 3e e4 c1 3b 3d 3f 3c 2d bc
       0.05907429 0.15733789 0.045839205 -0.010573446
000010 a9 b5 d6 3d d9 c3 ef 3c 85 fc 6d be d0 e5 27 be
       0.10483868 0.029268192 -0.2324086 -0.1639626
000020 b9 78 bf 3d 77 90 8a be 87 5d 72 3c 0d 85 5b 3d
       0.09349198 -0.27063343 0.0147928065 0.053593684
000030 46 c0 f7 bd 1e 6e 87 3d 67 13 e9 3d 7b 4e 64 be
       -0.1209722 0.066128 0.11380654 -0.22295563
000040 77 7a 9c be cb e6 a7 bd bc f8 6d 3e d4 bd 21 be
       -0.30562183 -0.08198317 0.23239416 -0.1579507
000050 16 b5 34 bd 8f 24 c5 3d b7 e8 70 be b5 6d e2 3c
       -0.04411801 0.096261136 -0.23526274 0.027640203
000060 87 07 9b bd 64 5a 9c 3e 7d 40 9f 3e e3 2b b6 3d
       -0.07569795 0.30537713 0.31103888 0.088950895
000070 eb 73 4f be 2e fa a9 bd b2 12 bb 3d 78 f9 00 bd
       -0.20259063 -0.08299671 0.09134425 -0.031487912
000080 de 96 1a 3e d9 7d ce 3d 88 c8 11 bf b7 85 66 3e
       0.15096614 0.10082597 -0.5694661 0.22511946
000090 e4 84 86 be bb af a3 3d e5 1c 11 be b9 fd 9f bd
       -0.26273263 0.07992502 -0.14171179 -0.07812066
0000a0 ae 56 dd bc 71 70 f6 bc 0d dc 2a 3e c6 5b 8d 3e
       -0.027018871 -0.030082913 0.16685505 0.2760908
0000b0 b2 95 54 be 2f 7c ca 3d ae b2 2d 3e 05 fc b2 bd
       -0.20760229 0.098869674 0.16962692 -0.08739475
0000c0 8f 5e 8a 3c 4a fb 26 3e c7 b0 8a be dd 75 4e be
       0.016890792 0.16306797 -0.27087995 -0.20162149
0000d0 5a 71 71 bd 6e 7c 8c be 2a 73 b1 3b 4d 4a d7 be
       -0.05894599 -0.27438682 0.00541534 -0.42048874
0000e0 bf 46 52 3e 3c 9e 04 3e cb 54 99 be 50 bf 53 bc
       0.205348 0.12950987 -0.29947504 -0.01292403
0000f0 47 88 5b bc 1e 44 c5 bd db b5 62 be 52 bd 3c 3c
       -0.01339919 -0.09632133 -0.22139685 0.011519747
000100 ff fd 66 3e d3 05 a6 3d c0 6a 1a be 85 5d 80 3e
       0.2255783 0.0810658 -0.15079784 0.2507135
000110 8c 75 9d be d8 da 36 3e 94 a8 bc 3c 59 39 30 be
       -0.30753744 0.1785692 0.023029603 -0.17209376
000120 0b 78 d5 3d 0e 15 44 3b 7d e7 dd 3d 41 36 e3 3c
       0.10423287 0.0029919776 0.108351685 0.027735831
000130 5b 4e 94 3e 12 2a 09 3e 4c 2c e2 bd 4c c9 b9 3c
       0.2896603 0.13394955 -0.11043605 0.022678994
000140 19 92 a9 be 73 4c a2 be cc e0 38 be 78 e7 68 3a
       -0.33119276 -0.3169895 -0.18054503 0.0008884589
000150 55 af c0 3d 3b c5 82 3e 6d e5 2b 3b 2e 59 ad 3e
       0.09408442 0.255411 0.0026229278 0.338571
000160 d8 0e db 3e ea 22 54 be f9 a1 e3 bd e5 66 f1 bd
       0.42784762 -0.20716444 -0.11114878 -0.11787204
000170 51 22 e1 3c 36 5f 1d 3e 95 f2 7c 3e 33 e3 1d be
       0.027482184 0.15368351 0.24701913 -0.15418701
000180 95 58 2e be 0e 8e 17 be 48 f0 12 be 06 37 03 3d
       -0.17025979 -0.14800283 -0.14349473 0.032034896
000190 21 8e af bd 3a cc 59 be 4b 30 62 bd 54 66 fb 3e
       -0.08572031 -0.21269313 -0.055221837 0.49101508
0001a0 1f e4 8b be d6 e4 15 3c 1c a3 bf 3d c2 7d b7 bc
       -0.2732248 0.009148797 0.093572825 -0.022398833
0001b0 55 9b 81 be 46 af 0c 3e d9 eb 27 bd 44 eb 9a be
       -0.2531382 0.13738737 -0.040996406 -0.30257618
0001c0 71 5b 7d bd ae a7 ea 3d a8 5b 29 3e 5a 70 15 be
       -0.061854783 0.114577636 0.1653887 -0.1459364
0001d0 c0 4a ef bd 17 07 8b 3e 9b d9 78 3e 4a 5f a6 bc
       -0.11684179 0.27153847 0.2430176 -0.02030911
0001e0 b2 b0 a9 be 5e 1c 51 3e 0e 1c a2 bd 26 17 25 bd
       -0.3314262 0.20420977 -0.07915507 -0.04030528
0001f0 71 98 ec 3e 14 75 2b bd d7 67 95 bc ce eb 9b 3c
       0.46210054 -0.0418597 -0.018237991 0.019033339
000200 94 37 0a bd f0 cd c2 bd a4 1b 3c 3e 93 e1 e5 3c
       -0.03374441 -0.09511936 0.18369919 0.028061664
000210 e6 d8 27 3e 87 e9 33 3e 41 4c b4 3d cf 18 22 be
       0.16391334 0.17569552 0.08803607 -0.15829776
000220 55 68 84 3e f2 db 44 be e0 a5 85 3e c6 b8 6f be
       0.2586085 -0.19224527 0.26103115 -0.23410329
000230 8c 8b 94 3b af 29 85 bd b2 5f b3 3e 18 d1 9a bd
       0.004533237 -0.06502091 0.35033947 -0.07559413
000240 d4 f0 83 3d 76 80 8e 3d bf fb d5 3d 8f ee 75 bd
       0.06442419 0.06958096 0.104484074 -0.06004196
000250 ff a5 89 be 84 55 5d 3e 2a 2a cf 3c d2 83 35 3e
       -0.26884457 0.21614653 0.02528866 0.17726067
000260 85 fc cc 3e ce 1b 57 3d a8 aa d6 bc cd ce b2 3d
       0.40036407 0.05251675 -0.026204422 0.0873085
000270 e2 5f a5 3e 8b 1a 10 bd cd 98 5a 3e 8d 85 97 3d
       0.32299715 -0.035181563 0.21347351 0.0739852
000280 d6 e8 3a be 07 7a b6 bc ec a9 94 bb 77 d4 2d be
       -0.18252882 -0.022274984 -0.004536858 -0.1697558
000290 15 f8 9a 3e 00 4a 67 3d e2 9c 89 bc 5d a5 99 3d
       0.30267397 0.056467056 -0.01679844 0.07502244
0002a0 e2 c6 39 bc cd e8 6c 3e da d1 52 bc 69 75 2f 3d
       -0.011338921 0.23135681 -0.012867415 0.04283658
0002b0 d8 0f d0 3c 8b 45 32 3e b9 ae 49 3d c6 b8 6b 3e
       0.02539818 0.17409341 0.049238894 0.23019704
0002c0 56 24 9e bd 63 f1 11 3f a4 26 d3 bd ce b4 c5 3d
       -0.07721774 0.5700895 -0.103101045 0.096536264
0002d0 92 27 1d 3e ba c6 77 be e4 78 93 be fa f6 63 bd
       0.15347126 -0.24196902 -0.2880317 -0.055655457
0002e0 72 4e 8e bc bf 77 9b be 7f b3 26 3d f8 4e fc be
       -0.01737139 -0.30364797 0.040698525 -0.49278998
0002f0 0b c5 9f bd a2 b4 89 be ec 8f 8d be 5d 03 0a be
       -0.07801255 -0.26895624 -0.27648866 -0.13477845
000300 70 4e a4 3d c9 7d cd 3d 52 44 a1 bd 55 a6 f8 be
       0.08022773 0.10033757 -0.07874359 -0.485644
000310 c6 4a 66 bd d3 c6 ab be 46 c0 c5 bd 20 e4 4d 3e
       -0.056223653 -0.33550128 -0.09655814 0.20106554
000320 3e 10 64 bd 34 31 0a be 60 7a 2b be 8f a5 30 be
       -0.055679552 -0.13495332 -0.16745901 -0.17250656
000330 08 6a 92 be 89 e4 8b bd b7 f3 90 3e 64 13 52 be
       -0.2859652 -0.06830699 0.2831094 -0.2051521
000340 c8 4e 5d 3d ce ed 67 3e 11 ea a2 be 80 0b 45 be
       0.05403021 0.22649309 -0.31819203 -0.19242668
000350 09 2a 4e 3d f7 df b9 3d ec c0 4c 3d a4 d6 79 3e
       0.050333057 0.09075921 0.049988672 0.24398285
000360 5a b8 b8 3d da b0 35 3d d3 7a 42 be 67 33 e5 bd
       0.09019537 0.044358112 -0.18992166 -0.11191445
000370 1f 18 93 bd 40 c8 6b 3e 88 67 9c 3d 8b 10 d1 bd
       -0.07182335 0.23025608 0.076369345 -0.102082334
000380 96 b3 07 3e 99 34 37 3e 0b 15 26 3e 29 fa 16 3f
       0.132521 0.17891158 0.16218965 0.58975464
000390 63 dd 38 3e 35 e2 bc bd f9 37 8f 3d 49 78 00 bc
       0.18053202 -0.09222833 0.06993098 -0.007841178
0003a0 c1 9a 03 bc 60 f8 c2 3e 52 e6 4b 3d 13 d1 28 bb
       -0.008032502 0.3808012 0.049780197 -0.0025759384
0003b0 69 60 a3 be 5d a0 39 3c 56 0e 85 bb b1 f2 0a 3e
       -0.31909493 0.0113297375 -0.004060547 0.13569142
0003c0 c3 f8 e9 bd ed 60 06 3e e4 c7 a3 3d 05 e0 f7 3d
       -0.11424401 0.13122912 0.079971105 0.12103275
0003d0 b6 00 7e bc 79 07 80 3e 58 53 90 bc 37 39 c5 3b
       -0.015503099 0.250057 -0.017617866 0.0060187834
0003e0 02 1f e2 3d 2d 73 18 3e c8 ed d8 3d 15 09 d7 3e
       0.110410705 0.14887686 0.10592228 0.41999117
0003f0 92 4c 2a 3d d7 58 35 3e 19 b7 34 3e 7b 66 9b 3e
       0.04157693 0.17709671 0.17647971 0.30351624

mlp_extractor.policy_net.2.bias f4 [64]
000000 d0 ad f8 bc a3 4e 8a bc 62 21 3b 3c 01 be 6b 3d
       -0.030356318 -0.0168832 0.011421533 0.05755425
000010 14 5a 3a 3d b1 0c 08 3d b9 59 1c 3d 41 39 a3 3a
       0.04549606 0.03321523 0.038171504 0.0012452976
000020 31 4d 97 3d d6 bb 61 3d 3c 74 de bd 8a 81 cf bd
       0.0738777 0.055110775 -0.10862014 -0.101321295
000030 0b 91 22 3b 5c dd 8e 3d 96 8c 88 3c 7a 04 b7 bc
       0.002480569 0.06975815 0.0166686 -0.022341002
000040 56 f3 60 bd df b4 87 3d 1c 93 4d 3d 49 e6 be 3c
       -0.054919563 0.06626295 0.050189123 0.023303168
000050 22 5c ec bb 89 69 3e 3d 05 51 d9 3c 48 09 a1 bc
       -0.0072131315 0.046487365 0.026527891 -0.019657746
000060 5f eb 3f bd 8f e0 e4 bb 14 96 a1 bc 28 f3 45 bd
       -0.046855327 -0.0069847773 -0.019724883 -0.048327595
000070 31 ca ac bd 0e 45 4e b9 2a 01 27 3d 71 dd 8c bc
       -0.084370025 -0.00019671416 0.040772595 -0.017195435
000080 87 de 02 3d ae fc 83 bd 53 db 3d 3d a4 50 0e 3d
       0.0319505 -0.06444679 0.046351742 0.034744874
000090 9f 68 e8 bc f5 b9 bc 3c 4d 2f 34 bd 68 28 87 bc
       -0.0283702 0.02303789 -0.043990422 -0.01649876
0000a0 64 d7 9c 3c e4 bf 8b bc 10 38 da 3d e9 49 88 bc
       0.019145675 -0.017059274 0.10655224 -0.016636806
0000b0 d7 86 7f 3c 0c 18 f6 3d 53 e3 cf bb 0d b7 6e bd
       0.015596113 0.12016305 -0.006344238 -0.05828004
0000c0 6e 96 0a bd ed a5 62 bc e1 8c 5a 3d 42 9c b2 39
       -0.033834867 -0.013833505 0.05335701 0.00034067227
0000d0 ef 28 26 bc 98 2f 75 bc 2f 1e 3d 3d 5c f0 e9 bc
       -0.010141595 -0.0149649605 0.046171363 -0.028556995
0000e0 07 5f c2 bc aa 18 6a 3d 8f 6c 11 bd c9 a3 01 bb
       -0.023726953 0.057152428 -0.03550392 -0.0019781461
0000f0 04 47 43 3c a8 00 a7 3c 37 28 85 3d ea af 0c bd
       0.011918787 0.020386055 0.06501811 -0.034347452

action_net.weight f4 [3, 64]
000000 0c 45 c3 bd f0 9f 43 3e 28 c7 cd 3d e9 d8 d1 bd
       -0.09534654 0.1910398 0.10047752 -0.102464505
000010 3a 30 e9 bd 8e 24 6a 3c 03 4d 26 3c 4d d7 b3 3c
       -0.113861516 0.014290942 0.010150197 0.02195325
000020 4d ee 9c 3c 51 05 08 3e ff ac 39 bd 90 53 c1 3d
       0.0191566 0.13283278 -0.045330998 0.094397664
000030 2d bc 71 be d2 33 31 bd 78 4b 8e 3d 53 cb 30 bd
       -0.2360694 -0.04326231 0.06947988 -0.043162655
000040 90 7f eb 3d c3 20 28 bc 8f 29 06 3d 9a 14 15 bd
       0.1149894 -0.010261717 0.032754477 -0.0363966
000050 ce f0 16 3c 7a 1a 01 be 4f ac 96 bc 56 a6 4c bd
       0.009212686 -0.12607756 -0.01839271 -0.049963318
000060 da 97 13 be 07 cc 45 be 37 a0 e7 bc 6f c0 ba 3c
       -0.14413396 -0.19316112 -0.028274639 0.022796838
000070 a8 4c c8 3d 6b e2 33 3c 60 c0 20 bc fe 22 03 3d
       0.09780246 0.010979275 -0.009811491 0.032015793
000080 9d 79 07 3e 79 53 9a bc b2 32 1b 3d a2 7c 38 be
       0.13229986 -0.018838631 0.037890144 -0.18016294
000090 6e 89 d2 3c 15 83 01 be 45 97 56 bd a2 34 2c 3e
       0.025700297 -0.1264766 -0.052390356 0.16816953
0000a0 09 9c 1d 3d 9d 3d 19 3e f7 94 4b 3d 10 2b e9 3c
       0.038478885 0.1496491 0.04970261 0.028462917
0000b0 08 87 9e bd 11 68 a4 bd f1 ef 7d 3d 9b f7 5a 3e
       -0.07740599 -0.080276616 0.061996404 0.21383516
0000c0 2f 8b 18 3d d6 18 28 3d 83 a7 d2 3d f3 5b 26 3d
       0.03724211 0.04103931 0.102858566 0.040615033
0000d0 3b 87 67 3d 34 69 c0 bd 27 d7 d4 bd b4 d5 a1 3d
       0.05652545 -0.09395066 -0.103925996 0.07902089
0000e0 58 07 68 3e 2d 78 0d be 49 7b 1c 3d 49 31 00 3d
       0.22659051 -0.13815375 0.03820351 0.031297002
0000f0 4f 84 2b be 10 a2 7e 3d 3c 45 60 3d 31 f6 49 3d
       -0.1674969 0.062166274 0.054753527 0.049307052
000100 71 9c 90 3c 6f 9a b4 bd 59 6d 06 bd 45 1e b6 3c
       0.017652722 -0.08818518 -0.032819126 0.02223123
000110 0f d9 55 bd 7b af 30 be d0 32 ef 3d ad ef a4 3c
       -0.052208956 -0.1725444 0.116796136 0.020133818
000120 c4 4d 0e 3e 6a 7e e7 bc 02 2c 2b be 06 d5 01 3b
       0.13896853 -0.028258521 -0.16716006 0.001981081
000130 a0 25 ad 3d 11 ca ed 3b c8 cc 14 3d 4f e5 a1 3e
       0.08454442 0.007256754 0.036328107 0.3162026
000140 48 7e 87 3e d9 4a d7 3d 8e b7 59 3d b6 a5 bc 3d
       0.26463532 0.10512323 0.053153567 0.09211294
000150 0a ef 36 be e4 66 e8 3d 8b f6 50 bc 54 f7 89 bd
       -0.17864624 0.1134775 -0.012754093 -0.06736627
000160 01 98 56 bd b0 06 3f bd c9 f5 68 bd ca fe c6 bd
       -0.052391056 -0.046637237 -0.056875024 -0.09716566
000170 73 b7 de bd 51 57 60 3d 37 6e 06 3e 39 59 44 be
       -0.10874834 0.05477077 0.13127981 -0.1917466
000180 0b cc 7a 3d eb 8c 02 be bb 5f 4d 3d d0 0c 43 3e
       0.061229747 -0.12749068 0.050140124 0.19047856
000190 82 25 86 bd 09 70 f7 3c 05 a2 8c bd 63 59 0d be
       -0.06550123 0.03020479 -0.0686684 -0.1380363
0001a0 26 e1 f6 3d a3 5d 15 3d 10 84 cb 3d c4 fe ac bd
       0.120546624 0.036466252 0.09937298 -0.0844703
0001b0 c0 1a e5 bd cb d4 ca 3d 3b 8a 1d 3e 8a 55 c0 bd
       -0.11186743 0.09903868 0.15384762 -0.09391315
0001c0 af f3 c8 bd cb 35 ae 3e 5a 80 89 3d 96 45 42 3c
       -0.09812104 0.34025416 0.06713934 0.011857411
0001d0 d8 fa 8d 3d 8a d6 e3 3e 1b 28 b7 3d 21 27 1a be
       0.0693261 0.44499618 0.089431964 -0.15053989
0001e0 d1 d9 5d be 5b 15 f0 bd d9 8d a1 bb bb ce dc bd
       -0.21665122 -0.11722823 -0.0049302396 -0.10781618
0001f0 10 db b3 bd fc 5d b6 3d 3f 4c 52 3d c9 a8 a1 bd
       -0.08782017 0.08904645 0.051342245 -0.07893521
000200 63 39 4c 3d 14 97 38 bb 07 59 00 3e 25 26 50 be
       0.049859416 -0.0028166221 0.12533961 -0.20327051
000210 dc b7 ba bb 3c 17 4d bb a5 bb c5 bd eb 1a 1f bc
       -0.0056981873 -0.0031294366 -0.09654931 -0.009711008
000220 4b 71 0c bd 8c 9f a9 bb ff 4b b7 bc 48 07 6f 3d
       -0.034287732 -0.00517649 -0.022375105 0.058356553
000230 72 cf ca 3c b8 3f 0c 3d 5a a3 b8 3c 26 c6 5e bd
       0.02475712 0.034240454 0.02253883 -0.054388188
000240 d4 01 0a 3c 14 e9 ce 3d 7c 6c 57 3d 59 e3 69 bd
       0.008423287 0.1010305 0.052593693 -0.05710158
000250 2c 03 af bd 43 17 e6 3b 00 7f 58 bd 65 29 b5 bd
       -0.08545527 0.007021816 -0.05285549 -0.08845786
000260 5d 76 ab 3d 5d 1a de 3d f4 8a 9e bd b2 90 60 be
       0.083721854 0.10844872 -0.07741347 -0.21930197
000270 d4 a3 71 be f5 83 60 3e 5d 1e fb bc 80 dc c9 3a
       -0.23597652 0.21925338 -0.030654127 0.0015400797
000280 2f b0 93 3e 59 e1 b0 bd bb 8a b4 bd b8 e4 8b bd
       0.28845355 -0.08636732 -0.08815523 -0.06830734
000290 2d f0 12 3e e7 7e 08 3d 3b 03 9a 3d bf 61 b5 3d
       0.14349432 0.03332415 0.075201474 0.08856534
0002a0 d8 dc ab 3d 81 05 9b bd e2 da 9e 3e 24 9f 2a 3d
       0.08391732 -0.07569409 0.3102637 0.041655675
0002b0 5e 51 b7 bc 17 c4 7a 3e 7d fc e4 3d 68 27 30 bd
       -0.022377666 0.24488865 0.11180971 -0.04300633
0002c0 d8 3c c5 3d 8d 5e 5c bd c5 3a b0 bc 04 44 e1 3d
       0.09630746 -0.05380111 -0.021512398 0.10999301
0002d0 67 ca aa bc ab 6b 66 3e 96 18 0d 3d b0 a4 4d 3d
       -0.020848466 0.2250201 0.034447275 0.050205886
0002e0 e1 92 e0 bd 1c 81 66 bd 48 71 e4 bd ea 84 01 3e
       -0.10965515 -0.056275472 -0.11154419 0.12648359
0002f0 2e 63 b1 bc 65 df d5 b9 56 cd 97 3d c9 c8 4d be
       -0.021653738 -0.00040792968 0.074122116 -0.20096125

action_net.bias f4 [3]
000000 4d a5 a0 3c c0 a8 b4 3d ba 28 81 3d
       0.019610072 0.08821249 0.06306596
